Loading feature file paths
Loading feature file paths
Loading feature file paths
TERM information condenser hidden dimensionality is 32
GNN Potts Model Encoder hidden dimensionality is 128
TERMinator(
  (bot): CondenseTERM(
    (embedding): ResidueFeatures(
      (embedding): Embedding(21, 23)
      (relu): ReLU(inplace=True)
      (tanh): Tanh()
      (lin1): Linear(in_features=32, out_features=32, bias=True)
      (lin2): Linear(in_features=32, out_features=32, bias=True)
      (bn): BatchNorm2d(32, eps=1e-05, momentum=0.1, affine=True, track_running_stats=True)
    )
    (edge_features): EdgeFeatures(
      (W): Sequential(
        (0): Linear(in_features=900, out_features=128, bias=True)
        (1): ReLU()
        (2): Linear(in_features=128, out_features=32, bias=True)
      )
    )
    (cie): ContactIndexEncoding(
      (dropout): Dropout(p=0.1, inplace=False)
    )
    (term_mpnn): TERMGraphTransformerEncoder(
      (W_v): Linear(in_features=32, out_features=32, bias=True)
      (W_e): Linear(in_features=32, out_features=32, bias=True)
      (edge_encoder): ModuleList(
        (0): TERMEdgeMPNNLayer(
          (dropout): Dropout(p=0.1, inplace=False)
          (norm): ModuleList(
            (0): Normalize()
            (1): Normalize()
          )
          (W1): Linear(in_features=160, out_features=32, bias=True)
          (W2): Linear(in_features=32, out_features=32, bias=True)
          (W3): Linear(in_features=32, out_features=32, bias=True)
          (dense): PositionWiseFeedForward(
            (W_in): Linear(in_features=32, out_features=128, bias=True)
            (W_out): Linear(in_features=128, out_features=32, bias=True)
          )
        )
        (1): TERMEdgeMPNNLayer(
          (dropout): Dropout(p=0.1, inplace=False)
          (norm): ModuleList(
            (0): Normalize()
            (1): Normalize()
          )
          (W1): Linear(in_features=160, out_features=32, bias=True)
          (W2): Linear(in_features=32, out_features=32, bias=True)
          (W3): Linear(in_features=32, out_features=32, bias=True)
          (dense): PositionWiseFeedForward(
            (W_in): Linear(in_features=32, out_features=128, bias=True)
            (W_out): Linear(in_features=128, out_features=32, bias=True)
          )
        )
        (2): TERMEdgeMPNNLayer(
          (dropout): Dropout(p=0.1, inplace=False)
          (norm): ModuleList(
            (0): Normalize()
            (1): Normalize()
          )
          (W1): Linear(in_features=160, out_features=32, bias=True)
          (W2): Linear(in_features=32, out_features=32, bias=True)
          (W3): Linear(in_features=32, out_features=32, bias=True)
          (dense): PositionWiseFeedForward(
            (W_in): Linear(in_features=32, out_features=128, bias=True)
            (W_out): Linear(in_features=128, out_features=32, bias=True)
          )
        )
        (3): TERMEdgeMPNNLayer(
          (dropout): Dropout(p=0.1, inplace=False)
          (norm): ModuleList(
            (0): Normalize()
            (1): Normalize()
          )
          (W1): Linear(in_features=160, out_features=32, bias=True)
          (W2): Linear(in_features=32, out_features=32, bias=True)
          (W3): Linear(in_features=32, out_features=32, bias=True)
          (dense): PositionWiseFeedForward(
            (W_in): Linear(in_features=32, out_features=128, bias=True)
            (W_out): Linear(in_features=128, out_features=32, bias=True)
          )
        )
      )
      (node_encoder): ModuleList(
        (0): TERMNodeMPNNLayer(
          (dropout): Dropout(p=0.1, inplace=False)
          (norm): ModuleList(
            (0): Normalize()
            (1): Normalize()
          )
          (W1): Linear(in_features=160, out_features=32, bias=True)
          (W2): Linear(in_features=32, out_features=32, bias=True)
          (W3): Linear(in_features=32, out_features=32, bias=True)
          (dense): PositionWiseFeedForward(
            (W_in): Linear(in_features=32, out_features=128, bias=True)
            (W_out): Linear(in_features=128, out_features=32, bias=True)
          )
        )
        (1): TERMNodeMPNNLayer(
          (dropout): Dropout(p=0.1, inplace=False)
          (norm): ModuleList(
            (0): Normalize()
            (1): Normalize()
          )
          (W1): Linear(in_features=160, out_features=32, bias=True)
          (W2): Linear(in_features=32, out_features=32, bias=True)
          (W3): Linear(in_features=32, out_features=32, bias=True)
          (dense): PositionWiseFeedForward(
            (W_in): Linear(in_features=32, out_features=128, bias=True)
            (W_out): Linear(in_features=128, out_features=32, bias=True)
          )
        )
        (2): TERMNodeMPNNLayer(
          (dropout): Dropout(p=0.1, inplace=False)
          (norm): ModuleList(
            (0): Normalize()
            (1): Normalize()
          )
          (W1): Linear(in_features=160, out_features=32, bias=True)
          (W2): Linear(in_features=32, out_features=32, bias=True)
          (W3): Linear(in_features=32, out_features=32, bias=True)
          (dense): PositionWiseFeedForward(
            (W_in): Linear(in_features=32, out_features=128, bias=True)
            (W_out): Linear(in_features=128, out_features=32, bias=True)
          )
        )
        (3): TERMNodeMPNNLayer(
          (dropout): Dropout(p=0.1, inplace=False)
          (norm): ModuleList(
            (0): Normalize()
            (1): Normalize()
          )
          (W1): Linear(in_features=160, out_features=32, bias=True)
          (W2): Linear(in_features=32, out_features=32, bias=True)
          (W3): Linear(in_features=32, out_features=32, bias=True)
          (dense): PositionWiseFeedForward(
            (W_in): Linear(in_features=32, out_features=128, bias=True)
            (W_out): Linear(in_features=128, out_features=32, bias=True)
          )
        )
      )
      (W_out): Linear(in_features=32, out_features=32, bias=True)
    )
  )
  (top): PairEnergies(
    (features): MultiChainProteinFeatures(
      (embeddings): IndexDiffEncoding()
      (dropout): Dropout(p=0.1, inplace=False)
      (node_embedding): Linear(in_features=6, out_features=128, bias=True)
      (edge_embedding): Linear(in_features=39, out_features=128, bias=True)
      (norm_nodes): LayerNorm((128,), eps=1e-05, elementwise_affine=True)
      (norm_edges): LayerNorm((128,), eps=1e-05, elementwise_affine=True)
    )
    (W_v): Linear(in_features=160, out_features=128, bias=True)
    (W_e): Linear(in_features=160, out_features=128, bias=True)
    (edge_encoder): ModuleList(
      (0): EdgeMPNNLayer(
        (dropout): Dropout(p=0.1, inplace=False)
        (norm): ModuleList(
          (0): Normalize()
          (1): Normalize()
        )
        (W1): Linear(in_features=384, out_features=128, bias=True)
        (W2): Linear(in_features=128, out_features=128, bias=True)
        (W3): Linear(in_features=128, out_features=128, bias=True)
        (dense): PositionWiseFeedForward(
          (W_in): Linear(in_features=128, out_features=512, bias=True)
          (W_out): Linear(in_features=512, out_features=128, bias=True)
        )
      )
      (1): EdgeMPNNLayer(
        (dropout): Dropout(p=0.1, inplace=False)
        (norm): ModuleList(
          (0): Normalize()
          (1): Normalize()
        )
        (W1): Linear(in_features=384, out_features=128, bias=True)
        (W2): Linear(in_features=128, out_features=128, bias=True)
        (W3): Linear(in_features=128, out_features=128, bias=True)
        (dense): PositionWiseFeedForward(
          (W_in): Linear(in_features=128, out_features=512, bias=True)
          (W_out): Linear(in_features=512, out_features=128, bias=True)
        )
      )
      (2): EdgeMPNNLayer(
        (dropout): Dropout(p=0.1, inplace=False)
        (norm): ModuleList(
          (0): Normalize()
          (1): Normalize()
        )
        (W1): Linear(in_features=384, out_features=128, bias=True)
        (W2): Linear(in_features=128, out_features=128, bias=True)
        (W3): Linear(in_features=128, out_features=128, bias=True)
        (dense): PositionWiseFeedForward(
          (W_in): Linear(in_features=128, out_features=512, bias=True)
          (W_out): Linear(in_features=512, out_features=128, bias=True)
        )
      )
    )
    (node_encoder): ModuleList(
      (0): NodeMPNNLayer(
        (dropout): Dropout(p=0.1, inplace=False)
        (norm): ModuleList(
          (0): Normalize()
          (1): Normalize()
        )
        (W1): Linear(in_features=384, out_features=128, bias=True)
        (W2): Linear(in_features=128, out_features=128, bias=True)
        (W3): Linear(in_features=128, out_features=128, bias=True)
        (dense): PositionWiseFeedForward(
          (W_in): Linear(in_features=128, out_features=512, bias=True)
          (W_out): Linear(in_features=512, out_features=128, bias=True)
        )
      )
      (1): NodeMPNNLayer(
        (dropout): Dropout(p=0.1, inplace=False)
        (norm): ModuleList(
          (0): Normalize()
          (1): Normalize()
        )
        (W1): Linear(in_features=384, out_features=128, bias=True)
        (W2): Linear(in_features=128, out_features=128, bias=True)
        (W3): Linear(in_features=128, out_features=128, bias=True)
        (dense): PositionWiseFeedForward(
          (W_in): Linear(in_features=128, out_features=512, bias=True)
          (W_out): Linear(in_features=512, out_features=128, bias=True)
        )
      )
      (2): NodeMPNNLayer(
        (dropout): Dropout(p=0.1, inplace=False)
        (norm): ModuleList(
          (0): Normalize()
          (1): Normalize()
        )
        (W1): Linear(in_features=384, out_features=128, bias=True)
        (W2): Linear(in_features=128, out_features=128, bias=True)
        (W3): Linear(in_features=128, out_features=128, bias=True)
        (dense): PositionWiseFeedForward(
          (W_in): Linear(in_features=128, out_features=512, bias=True)
          (W_out): Linear(in_features=512, out_features=128, bias=True)
        )
      )
    )
    (W_out): Linear(in_features=128, out_features=400, bias=True)
  )
)
terminator hparams {'cov_features': 'all_raw', 'cov_compress': 'ffn', 'term_use_mpnn': True, 'matches': 'ablate', 'energies_use_mpnn': True, 'energies_full_graph': True, 'contact_idx': True, 'energies_encoder_layers': 3, 'energies_hidden_dim': 128, 'use_terms': True, 'model': 'multichain', 'term_hidden_dim': 32, 'gradient_checkpointing': True, 'n
…
